mnist_lstm.pt (torch, 330927 bytes, 6 tensors)

lstm.weight_ih_l0 f4 [512, 28]
0	0x3dfdef51	0.123991616
1	0x3b0873e5	0.0020821032
2	0x3d0c383b	0.034233313
3	0x3dddf960	0.1083858
4	0x3dfe3ec8	0.12414318
5	0x3e12b81d	0.14328046
6	0x3d9632f6	0.07333939
7	0x3d53d3b7	0.05171558
8	0xbc9527d1	-0.018207463
9	0x3e09d6ca	0.13460842
10	0x3e6f1faf	0.2335193
11	0x3e6207d1	0.22073294
12	0x3e153034	0.1456917
13	0x3df7a7a6	0.12092523
14	0x3df7b283	0.12094595
15	0x3e172ca6	0.14763126
16	0x3d5f5c5c	0.05453144
17	0x3dbf3d0b	0.09337815
18	0x3d59c254	0.05316384
19	0x3c87c97d	0.01657557
20	0x3d951514	0.07279411
21	0xbbca73d6	-0.0061783595
22	0x3b9736b3	0.004614675
23	0x3c81b855	0.015834967
24	0x3b7a2024	0.003816613
25	0x3ddaef2d	0.106901504
26	0xbd5307de	-0.051521175
27	0x3e06b954	0.13156635
28	0x3d17e7ec	0.037086412
29	0x3debbd3a	0.115107015
30	0x3d5b523a	0.053545214
31	0xbdd3a87a	-0.10334869
32	0x3b9736c0	0.004614681
33	0xbd3bedae	-0.045880966
34	0xbdb028f8	-0.08601564
35	0xbc110f64	-0.008853767
36	0x3d44e4c8	0.048069745
37	0x3e3481a7	0.17627583
38	0x3e801f83	0.25024042
39	0x3e80fb5c	0.25191772
40	0x3df656cf	0.12028276
41	0xbd36e3ab	-0.044650715
42	0xbd028c89	-0.031872306
43	0xbe709313	-0.23493604
44	0xbe3e4567	-0.18581162
45	0xbdfc70c4	-0.12326196
46	0xbe70490e	-0.23465368
47	0xbe267099	-0.1625389
48	0x3cdfcfb3	0.027320718
49	0x3cc5c015	0.024139443
50	0xbd7fa414	-0.062412336
51	0xbe501cb4	-0.2032345
52	0xbdc73c0d	-0.09728251
53	0xbbc56fc6	-0.0060252873
54	0x3d8e4921	0.06947542
55	0xbb5ed1d8	-0.0033999588
56	0x3e2c72bd	0.16840644
57	0x3d78efc5	0.060775537
58	0xbd2342a9	-0.039858494
59	0xbdd946b9	-0.106091924
60	0x3d0f7824	0.035026684
61	0x3d9b9c6e	0.07598196
62	0xbc861d26	-0.016371321
63	0xbd9c03e5	-0.0761793
64	0xbd4af9a3	-0.04955448
65	0xbe5c087f	-0.21487616
66	0xbe18750c	-0.148884
67	0xbe28e8cd	-0.16495056
68	0xbd46e8be	-0.048561804
69	0xbe062375	-0.13099463
70	0xbe286aa9	-0.16446938
71	0xbda5ad04	-0.08089641
72	0xbde4e81c	-0.11177084
73	0xbde0f5ec	-0.10984406
74	0x3d405577	0.046956506
75	0xbd66cdda	-0.05634866
76	0xbdd63fec	-0.10461411
77	0xbd483319	-0.048876856
78	0x3cfcb584	0.030848272
79	0xbde262be	-0.1105399
80	0xbe07470f	-0.132107
81	0x3bb75bb8	0.0055956505
82	0x3d8810d4	0.06643835
83	0xbd974e06	-0.07387929
84	0xbd100164	-0.035157576
85	0x3d4326b7	0.047644343
86	0x3e158f2d	0.14605398
87	0x3dbbf931	0.09178389
88	0x3dd51ca2	0.10405852
89	0x393c3fdc	0.00017952867
90	0x3d7498ec	0.05971615
91	0x3ce6cf65	0.028175065
92	0x3a55981d	0.0008147972
93	0x3cf488f7	0.029850466
94	0x3e0e1e47	0.13878737
95	0x3e53b7e0	0.20675611
96	0x3e9c0b9d	0.3047761
97	0x3e46a220	0.19397783
98	0xbcd2346a	-0.025659759
99	0x3e8c0b3f	0.2735233
100	0x3e6767da	0.2259821
101	0x3e446a55	0.19181187
102	0x3e16bcc9	0.14720453
103	0x3b80050b	0.003906851
104	0xbe07967f	-0.13241003
105	0xbe1ead0a	-0.15495697
106	0xbe06e500	-0.13173294
107	0xbdde16e4	-0.1084421
108	0xbd7b271b	-0.06131659
109	0x3df3be45	0.119015254
110	0xbd2a32f6	-0.041552506
111	0x3daba456	0.08380954
112	0x3c983657	0.018580599
113	0xbc64b659	-0.013959491
114	0xbe5a82c0	-0.2133894
115	0xbe3d8e68	-0.18511355
116	0xbe1f9da2	-0.15587476
117	0xbe10d59d	-0.14143987
118	0x3d849925	0.064745225
119	0xbcee63f5	-0.029100398
120	0x3de5917a	0.11209388
121	0x3df77cf6	0.12084381
122	0x3e0c3ffd	0.13696285
123	0x3d763126	0.060105465
124	0xbdb59b7e	-0.088675484
125	0xbc0d706e	-0.008632762
126	0x3e4b228b	0.19837396
127	0x3db1fada	0.08690424
128	0x3dde70e9	0.1086138
129	0x3dc0f71e	0.09422134
130	0xbd94d277	-0.072667055
131	0xbddcaa53	-0.10774674
132	0x3c15cf44	0.009143654
133	0xbce81fbb	-0.028335443
134	0xbd43a404	-0.04776384
135	0x3d329c2a	0.04360596
136	0xbd4d5cba	-0.05013726
137	0x3d70ab1d	0.058756936
138	0x3e98d992	0.29853493
139	0x3e23c96e	0.15994808
140	0xbd4d487f	-0.050117966
141	0xbe0c5057	-0.13702522
142	0x3e0a4306	0.1350213
143	0x3ec09fed	0.37622014
144	0x3e8b2c7a	0.2718237
145	0x3e4cb256	0.19989905
146	0x3ea323bd	0.31863204
147	0x3e321dca	0.17394176
148	0x3d924194	0.07141414
149	0x3d42c1ac	0.04754798
150	0xbd10d162	-0.035355933
151	0xbdd1d60e	-0.10245906
152	0xbe0b1160	-0.13580847
153	0xbc9e974d	-0.019359255
154	0x3d08ec22	0.03342832
155	0x3d8c5fe3	0.068542264
156	0x3dc4d17b	0.09610268
157	0x3d9c3832	0.07627906
158	0x3c15c0a3	0.009140166
159	0xbc1d0304	-0.0095832385
160	0xbbc1a63a	-0.0059097083
161	0x3c124491	0.00892748
162	0x3e687f73	0.22704868
163	0x3e21bcb3	0.1579464
164	0x3d0315d9	0.032003257
165	0x3dff0e49	0.124538966
166	0x3e0ec157	0.13940941
167	0x3e09aee4	0.13445622
168	0xbcebc17f	-0.02877879
169	0xbd993159	-0.074801154
170	0xbea52692	-0.3225599
171	0xbc681370	-0.0141647905
172	0x3d9beaf5	0.07613174
173	0x3e0a19ab	0.13486354
174	0x3df397be	0.11894177
175	0x3e08c07e	0.1335468
176	0xbc55acf4	-0.0130417235
177	0xba830dd9	-0.0009998634
178	0xbcd58b86	-0.026067507
179	0xbd9cd66a	-0.07658084
180	0xbd230626	-0.039800785
181	0x3d398986	0.04529717
182	0x3dd1d41e	0.10245536
183	0x3c68b40c	0.014203083
184	0xbe4f6d09	-0.20256437
185	0xbe4759d0	-0.19467854
186	0xbe7735a9	-0.24141563
187	0xbe59a89d	-0.21255727
188	0xbe0ed7fa	-0.13949576
189	0xbe121977	-0.14267527
190	0xbe916256	-0.28395337
191	0xbea3031c	-0.3183831
192	0xbe8db3df	-0.27676293
193	0xbddfb4c5	-0.10923151
194	0x3db80243	0.089848064
195	0x3dc6b5e5	0.097026624
196	0xbc44b443	-0.012005868
197	0xbe0c0fb5	-0.13677867
198	0x3d918ef4	0.07107344
199	0xbc8ea6e2	-0.01741356
200	0xbe2b3fc3	-0.16723542
201	0xbdd63e2a	-0.104610756
202	0x3d8d2149	0.06891114
203	0x3e10f8fd	0.14157481
204	0x3cd46acb	0.02592983
205	0x3d6c68b2	0.057717033
206	0xbd0d1d45	-0.03445174
207	0xbd13d0e2	-0.036087878
208	0xbe0a1f76	-0.13488564
209	0xbd679550	-0.05653888
210	0x3d36c1c8	0.044618398
211	0x3d1c17f7	0.038108792
212	0x3e421607	0.18953715
213	0x3e907184	0.28211606
214	0x3eb58a7b	0.35457215
215	0x3e71ab75	0.23600562
216	0x3d808fbb	0.062774144
217	0x3e0127e8	0.1261288
218	0x3dcd4c62	0.100243345
219	0x3e20d27b	0.15705292
220	0x3e541f7a	0.20715132
221	0x3ed53ec8	0.4164946
222	0x3e28ff3a	0.16503611
223	0xbda20ebb	-0.07912966
224	0x3d1f16c9	0.03884009
225	0x3e1af07a	0.15130797
226	0xbe2ceac1	-0.16886427
227	0x3ccb578f	0.024822025
228	0xbd8f05b4	-0.0698351
229	0xbccf4432	-0.025301073
230	0xbc2e0c8e	-0.01062311
231	0x3d8e49b2	0.0694765
232	0x3e176e38	0.14788139
233	0x3dec7abd	0.11546848
234	0x3d8298f2	0.06376828
235	0x3ddccc72	0.10781182
236	0x3dcfd931	0.10148848
237	0xbd19325d	-0.037401546
238	0xbe16dfee	-0.1473386
239	0xbe76b7ab	-0.24093501
240	0xbe7744ec	-0.24147385
241	0xbec2b87e	-0.3803138
242	0xbf0850b3	-0.5324814
243	0xbf2db04f	-0.6784715
244	0xbf0d5895	-0.5521329
245	0xbef84d85	-0.48496643
246	0xbec2310b	-0.37928042
247	0xbf04fe79	-0.51950794
248	0xbf2498ff	-0.64295954
249	0xbec01e1f	-0.3752298
250	0xbd98d809	-0.074630804
251	0x3e043971	0.12912537
252	0xbdb2cf4f	-0.08730947
253	0xbe989bf8	-0.29806495
254	0xbe580b1c	-0.21097988
255	0x3e3e5fd3	0.18591242

lstm.weight_hh_l0 f4 [512, 128]
0	0xbbb9cc34	-0.005670095
1	0x3d59ece8	0.053204447
2	0xbd869dd2	-0.065730706
3	0x3e3aa52c	0.1822707
4	0xbdc3f8ea	-0.09568961
5	0xbb8cca94	-0.00429661
6	0x3b8a1327	0.004213709
7	0xbe2acabd	-0.16678901
8	0x3d58528a	0.05281309
9	0x3d93cda5	0.07216958
10	0xbe01ab19	-0.12662925
11	0x3d8b2fdb	0.06796237
12	0xbd00a89f	-0.03141081
13	0xbe0cedb3	-0.1376255
14	0x3d3906e0	0.045172572
15	0x3e39a094	0.18127662
16	0xbd4df6a5	-0.050284047
17	0x3ec39a15	0.38203493
18	0x3b66d486	0.0035221889
19	0xbcb60138	-0.022217378
20	0xbd7e0d90	-0.062024653
21	0x3d1d9485	0.038471717
22	0xbdd59d69	-0.10430414
23	0xbd342301	-0.043978695
24	0x3d117c3a	0.035518862
25	0xbd28aa15	-0.041177828
26	0xbba9f286	-0.0051863817
27	0xbdf55b0b	-0.11980256
28	0xbceae598	-0.028673932
29	0xbc8a9231	-0.016915413
30	0xbd95f24f	-0.07321607
31	0x3db74ec7	0.089505725
32	0x3d60d738	0.05489275
33	0xbdd29de6	-0.10284023
34	0x3d7cd5c9	0.06172732
35	0x3e0aaf7e	0.13543507
36	0x3d3a5531	0.0454914
37	0x3da21d6e	0.079157695
38	0x3ceba2a3	0.028764075
39	0xbc86f10b	-0.01647236
40	0x3e864afc	0.26229084
41	0x3d08ace4	0.033368006
42	0xbdb3473b	-0.087538205
43	0x3c25e8ba	0.010126287
44	0x3e68287e	0.22671697
45	0x3e11c408	0.14234936
46	0xbd72715e	-0.059190147
47	0xbcca46a1	-0.024691882
48	0x3d0d8aee	0.03455632
49	0x3d8726ab	0.06599172
50	0xbd0f0e02	-0.03492547
51	0x3d321325	0.04347529
52	0xbd561d6f	-0.052274164
53	0x3dc44f1a	0.095854
54	0xbdc8ebbe	-0.09810589
55	0x3de72e55	0.11288134
56	0x3d784692	0.060614176
57	0x39f68247	0.0004701784
58	0x3dc31821	0.095260866
59	0x3e06754e	0.13130686
60	0x3d61d40d	0.055133868
61	0xbcb2121b	-0.021737149
62	0x3cb6305e	0.02223986
63	0x3e100c1b	0.14067118
64	0xbd42600c	-0.04745488
65	0x3b680094	0.0035400735
66	0xbd18a0ca	-0.037262715
67	0xbd9b197d	-0.07573221
68	0x3e0af68a	0.1357061
69	0x3d3e99e2	0.046533473
70	0xbb4ffdb7	-0.003173692
71	0x3d2c845c	0.042118415
72	0x3dbedeed	0.093198635
73	0x3dbda9fe	0.09260939
74	0xbe553a89	-0.2082311
75	0x3d979acb	0.07402571
76	0x3d38363b	0.044973593
77	0xbdb50d30	-0.08840406
78	0xbd278cd1	-0.040905777
79	0x3db2c90d	0.08729754
80	0x3c59e9bc	0.0133003555
81	0xbe03a809	-0.12857069
82	0x3d12fd2d	0.03588598
83	0xbc59530b	-0.013264428
84	0xbe2d0143	-0.16895013
85	0x3cdef733	0.027217483
86	0x3d8bcec0	0.06826544
87	0xbc60ec9c	-0.013728287
88	0x3d399595	0.04530867
89	0xbc924d9b	-0.01785927
90	0x3e4ea74f	0.2018101
91	0xbd675a3e	-0.056482546
92	0xbda8502e	-0.08218418
93	0x3e09e82d	0.13467474
94	0x3cb0bf7c	0.021575682
95	0x3cf40752	0.029788647
96	0xbc8f9383	-0.017526394
97	0x3c9fc832	0.01950464
98	0xbdc03381	-0.093848236
99	0x3d25c09b	0.040466886
100	0x3d32bc36	0.043636523
101	0x3cdda885	0.027057895
102	0xbcc85592	-0.024454866
103	0xba0f9b17	-0.0005478127
104	0x3c8a65a3	0.016894167
105	0xbcb48473	-0.022035813
106	0x3cf3ca79	0.029759632
107	0xbd323d38	-0.043515414
108	0xbd824cbd	-0.06362293
109	0xbd17fb3c	-0.03710483
110	0xbda5f8dc	-0.08104107
111	0x3c952935	0.018208126
112	0xbd2784ac	-0.04089801
113	0xbbfeb19a	-0.0077726366
114	0x3d45e6b8	0.048315734
115	0xbd310920	-0.043221593
116	0xbd866054	-0.06561342
117	0x3d8d9514	0.069132
118	0xbcd746d1	-0.026278885
119	0xbd6bd3d6	-0.05757507
120	0x3dd154dd	0.102212645
121	0xbdfda552	-0.12385048
122	0x3dc7bb65	0.097525395
123	0x3d8f88ac	0.0700849
124	0xbe24884d	-0.1606762
125	0xbdf91fcf	-0.1216427
126	0x3d6e5a33	0.05819149
127	0xbdf2ab5f	-0.11849093
128	0x3cc8029b	0.024415305
129	0x3d19dfde	0.037567012
130	0xbd6f242b	-0.0583841
131	0x3da31f63	0.07964971
132	0xbd5a80f9	-0.053345654
133	0xbbab4ece	-0.0052279
134	0x3d0b06e0	0.033942103
135	0xbd8c1aa3	-0.06841018
136	0xbd1c1335	-0.038104255
137	0xbe32d0f1	-0.17462517
138	0xbd21125a	-0.039324142
139	0xbcfd10ca	-0.030891795
140	0xbe325cdc	-0.17418236
141	0xbc10264b	-0.008798192
142	0x3d97b698	0.07407874
143	0x3c9e3e30	0.019316763
144	0xbd4043b9	-0.046939585
145	0x3e331192	0.17487171
146	0x3e0145df	0.1262431
147	0x3dac0f3f	0.084013455
148	0xbdeb0740	-0.11475992
149	0x3cde11c7	0.027108086
150	0x3d34fb81	0.044185165
151	0xbe239da4	-0.15978104
152	0x3d4a8bba	0.04944966
153	0xbbd14cf7	-0.0063873488
154	0x3c274fb1	0.010211871
155	0x3c2e3913	0.010633725
156	0x3c824592	0.015902314
157	0xbdc91491	-0.09818376
158	0x3d545bb3	0.051845264
159	0xbd09542a	-0.03352753
160	0x3d84f46b	0.064919315
161	0x3dab1150	0.083529115
162	0x3cdb63ee	0.026781049
163	0xba2116e0	-0.0006145071
164	0xbe2cb8cc	-0.1686737
165	0x3e8b1b13	0.27169093
166	0xbb86bd5d	-0.0041119293
167	0xbded76b5	-0.11594907
168	0xbd0e9a41	-0.034815077
169	0x3daa8c66	0.0832756
170	0x3dc5aa39	0.09651608
171	0x3e0de08b	0.13855188
172	0xbda627e2	-0.08113076
173	0xbe053122	-0.13007024
174	0x3d80c9c8	0.06288487
175	0xbdc22884	-0.09480384
176	0x3d1eeb12	0.0387984
177	0x3ca8166c	0.020518504
178	0xbdc47db8	-0.095942914
179	0x3d2f7985	0.0428405
180	0x3da7e08b	0.08197125
181	0xbdc861a7	-0.09784251
182	0x3e213a99	0.1574501
183	0xbdb94cd8	-0.0904786
184	0xbdb6162a	-0.08890946
185	0xbd45cc59	-0.048290584
186	0x3e76b3d1	0.24092032
187	0xbc67c5dc	-0.014146294
188	0x3db93478	0.09043211
189	0xbdda52c2	-0.10660316
190	0x3bcbc917	0.00621904
191	0x3dff8665	0.124768056
192	0xbcf7a017	-0.030227704
193	0x3d518bdb	0.051158767
194	0xbd9220cf	-0.07135164
195	0x3e5b5c4c	0.21421927
196	0x3da46d51	0.08028663
197	0x3c02d405	0.00798512
198	0x3d21ca32	0.03949947
199	0xbe0f7efe	-0.14013287
200	0x3df79eb6	0.120908186
201	0x39fca2fd	0.0004818662
202	0x3ad5f323	0.0016323071
203	0x3e0dff8b	0.13867013
204	0x3c857867	0.016292764
205	0xbe4a33c6	-0.19746312
206	0x3e078daa	0.13237634
207	0x3e7b550f	0.24544166
208	0xbd819a3f	-0.06328248
209	0xbabbeb49	-0.0014337088
210	0xbd98f52c	-0.07468638
211	0x3d669529	0.056294594
212	0xbd026286	-0.03183224
213	0xbe216298	-0.15760267
214	0x3d28bddc	0.04119669
215	0x3df0ba50	0.11754286
216	0xbe3a9845	-0.18222149
217	0xbdb2df5b	-0.08734008
218	0xbde18bcd	-0.11012993
219	0x3c49f578	0.012326591
220	0xbdf7d2cd	-0.12100754
221	0xbd7a41cb	-0.0610979
222	0xbdbac9a5	-0.09120492
223	0x3da15703	0.07877924
224	0xbdecd9ee	-0.11565004
225	0x3d8785ce	0.06617318
226	0x3c8eb8af	0.017422048
227	0x3d93416d	0.07190213
228	0x3da30eb8	0.07961792
229	0xbbf9f469	-0.007628013
230	0x3e41fa76	0.189432
231	0xbcbaaf1a	-0.022788573
232	0xbca7d348	-0.020486489
233	0x3d1bbe57	0.03802332
234	0xbd0c04ac	-0.034184143
235	0x3e394646	0.18093213
236	0xbaf592ca	-0.0018735763
237	0x3d08a105	0.033356685
238	0x3e3c06ac	0.1836192
239	0x3cdfb254	0.027306713
240	0xbdad4e4f	-0.08462202
241	0x3cfae9d8	0.030629084
242	0xbe105dc7	-0.14098273
243	0xbcab3387	-0.020898594
244	0x3db9094f	0.090349786
245	0x3da7e4bc	0.081979245
246	0x3daac421	0.0833819
247	0xbe7b6da0	-0.24553537
248	0x3e5c4a97	0.21512829
249	0x3e03b749	0.12862886
250	0xbb5a6c7b	-0.003332882
251	0xbd3ddd3e	-0.04635357
252	0x3da0015e	0.07812761
253	0xbdb95776	-0.09049885
254	0xbc11dbae	-0.008902473
255	0xbd4c8802	-0.049934395

lstm.bias_ih_l0 f4 [512]
0	0xbcb51628	-0.022105291
1	0x3c9f4c02	0.019445423
2	0x3e15b82d	0.14621039
3	0x3d8ac23d	0.06775329
4	0xbd21ed87	-0.039533164
5	0x3d9b5d0d	0.075861074
6	0x3d5de020	0.05416882
7	0x3d86fa95	0.065907635
8	0xbd40f074	-0.047104314
9	0xbd19ce47	-0.037550237
10	0xbc52b217	-0.012859843
11	0xbd628105	-0.055298824
12	0x3c6d5898	0.014486454
13	0x3c18cdaa	0.009326378
14	0xbcf2e65b	-0.029650858
15	0xbdbb08ce	-0.09132539
16	0xbc46d2c7	-0.012135214
17	0x3e185a4b	0.14878194
18	0x3cb0bcdf	0.021574436
19	0x3e62815c	0.22119659
20	0xbd42142e	-0.047382526
21	0x3e04d9f1	0.12973763
22	0x3cad59b6	0.021160942
23	0x3dab81aa	0.08374341
24	0xbd664971	-0.056222383
25	0xbc80e1f2	-0.01573274
26	0x3d1caac0	0.038248777
27	0x3ccc6297	0.024949355
28	0x3d43509f	0.04768431
29	0xbc0f198a	-0.008734116
30	0x3d34e5f4	0.044164613
31	0x3d837eb8	0.06420654
32	0x3d9d6ea4	0.07687119
33	0x3e3724f0	0.17885184
34	0x3cee1d9d	0.029066855
35	0xbd42639f	-0.047458287
36	0x3d9e158d	0.07718954
37	0xbd5c777f	-0.053824898
38	0xbda403d9	-0.080085464
39	0xbde40742	-0.11134197
40	0x3d78dc38	0.060756892
41	0x3bd117a1	0.0063809906
42	0x3a95b07c	0.0011420394
43	0xbc92f891	-0.017940791
44	0x3ca72318	0.020402476
45	0x3dc04943	0.093889736
46	0x3ddfaf89	0.109221525
47	0x3e14baef	0.14524435
48	0xbe07739f	-0.132277
49	0x3d75e933	0.06003685
50	0x3e0867f6	0.13320908
51	0x3d30d956	0.043176018
52	0x3d24976d	0.040183473
53	0xbd2cd785	-0.042197723
54	0xbc9d0dfc	-0.019171707
55	0xbd4ceb9a	-0.050029375
56	0xbd650945	-0.055917043
57	0x3dfe22ac	0.12408957
58	0x3e1a93b0	0.15095401
59	0xbc630533	-0.01385622
60	0xbb66bb0d	-0.0035206706
61	0x3c5ba972	0.013407098
62	0x3d411724	0.04714121
63	0x3d7378c4	0.059441343
64	0xbc054406	-0.008133894
65	0x3c3245b4	0.010880876
66	0x3b5dca20	0.00338424
67	0x3da42799	0.08015365
68	0xbdb81009	-0.089874335
69	0x3d299884	0.041405216
70	0xbd831fc9	-0.06402547
71	0x3d8b5a35	0.06804315
72	0xbdc835a9	-0.0977586
73	0x3d3d438a	0.04620699
74	0x3d4c6848	0.049904138
75	0x3d2eaf99	0.04264793
76	0xbdb59db1	-0.08867968
77	0x3cc96636	0.02458487
78	0xbd4a5255	-0.049394924
79	0x3dcd3fbb	0.10021921
80	0x3d373333	0.04472656
81	0x3e14f358	0.14545953
82	0x3d87b066	0.06625442
83	0xbe2ddcd6	-0.16978773
84	0x3cf780f1	0.030212851
85	0xbcc4bed4	-0.024016775
86	0xbd747b62	-0.05968798
87	0x3d01f790	0.031730235
88	0xbd5e255f	-0.05423486
89	0x3d89f4ca	0.06736143
90	0xbd1a123a	-0.03761504
91	0x3dfa06b8	0.12208313
92	0x3e0f2f5e	0.13982913
93	0xbce8df77	-0.028426869
94	0x3e22003a	0.15820399
95	0xbc75ff11	-0.015014426
96	0xbd269862	-0.040672667
97	0x3d2ee394	0.042697504
98	0xbd851784	-0.06498626
99	0x3cc60458	0.024171993
100	0x3cc98ebf	0.0246042
101	0x3d9b80c4	0.075929195
102	0xbcda1a88	-0.02662398
103	0x3e1e0b4a	0.15433994
104	0x3db7b206	0.08969502
105	0x3d753093	0.059860777
106	0x3dc4d57f	0.09611034
107	0xbe01eacc	-0.12687224
108	0xbcc4b4c7	-0.024011983
109	0x3e0871af	0.13324617
110	0x3e03809d	0.12842031
111	0x3e0a49a3	0.13504653
112	0xbd6168be	-0.05503153
113	0x3c6da831	0.014505432
114	0xbd34f2c8	-0.044176847
115	0x3c7d366e	0.015454872
116	0x3d09c5ba	0.033635832
117	0x3cef1e84	0.029189356
118	0x3d5fd2a7	0.054644253
119	0x3d37bb26	0.044856213
120	0xbd09cfe1	-0.033645514
121	0x3dc23586	0.09482865
122	0x3d00bdb2	0.031430908
123	0x3d5c6408	0.053806335
124	0xbdd1afd0	-0.10238612
125	0xbd82c71e	-0.06385635
126	0x3d35a0c8	0.044342786
127	0x3ab2f86f	0.0013654361
128	0x3d2cefeb	0.04222099
129	0x3d372f13	0.044722628
130	0x3dc49a4d	0.09599743
131	0x3d2bd067	0.041946795
132	0x3e4a0321	0.19727756
133	0xbca1fda0	-0.019774258
134	0x3e27ccb0	0.16386676
135	0x3dc9019c	0.0981476
136	0x3db593ab	0.08866056
137	0x3dc184ed	0.09449182
138	0xbc4bbf46	-0.01243574
139	0x3da6b186	0.08139329
140	0xbbf21687	-0.0073879394
141	0x3d6accab	0.057324093
142	0xbd13384d	-0.035942364
143	0x3d562ccf	0.052288827
144	0x3d911fbf	0.07086133
145	0x3e25f071	0.16205002
146	0xbd2fc208	-0.042909652
147	0x3e041a71	0.12900712
148	0x3d38912b	0.045060318
149	0x3ba9f3c4	0.00518653
150	0x3e1cfbe6	0.15330467
151	0x3d530fd4	0.051528767
152	0x3e1e0eae	0.15435287
153	0x3dbcef4d	0.092253305
154	0xbc1dec84	-0.009638909
155	0x3e3a8e6e	0.18218395
156	0x3e1a47f1	0.15066506
157	0x3e1f2d5d	0.15544648
158	0x3cebea84	0.02879835
159	0x3d4c6183	0.049897682
160	0x3e30c19a	0.17261353
161	0xbbb15f61	-0.0054129814
162	0x3d7e496f	0.06208175
163	0x3e627190	0.22113633
164	0x3e33b066	0.1754776
165	0x3dce8e47	0.10085731
166	0x3dbe332d	0.09287105
167	0x3df37683	0.11887839
168	0xbd7680fe	-0.06018161
169	0x3b90b88d	0.0044165314
170	0x3e2a5262	0.16632989
171	0x3e35ce0d	0.17754383
172	0x3bb4f9c1	0.005522937
173	0xbd59a97b	-0.053140145
174	0x3e1686f9	0.14699925
175	0x3e3caba6	0.18424854
176	0x3d7792cb	0.060442727
177	0x3c819fc4	0.015823252
178	0xbb140832	-0.0022587893
179	0x3db4cf02	0.08828546
180	0x3dd00906	0.10157971
181	0x3dc8c281	0.09802724
182	0x3d1ad34f	0.037799176
183	0x3c7805bf	0.015138089
184	0xbdb7be82	-0.08971883
185	0x3de3f255	0.111302055
186	0x3c97da27	0.01853664
187	0xbd11e8ca	-0.035622396
188	0x3d7491b7	0.059709277
189	0x3ca6ee91	0.02037743
190	0x383d7fa6	4.5179993e-05
191	0x3e35c2dc	0.17750114
192	0x3c3884f1	0.011262164
193	0x3de7adf7	0.11312478
194	0xba061eb2	-0.00051162683
195	0x3e4f8d14	0.20268661
196	0x3ce1bd0d	0.027555967
197	0x3d6fcd7d	0.05854558
198	0x3e212fe1	0.1574092
199	0x3d60554f	0.054768857
200	0x3d2ba2be	0.04190325
201	0x3d60232d	0.054721046
202	0x3e5137fd	0.20431514
203	0x3dfd1285	0.12357048
204	0x3e921e86	0.28538913
205	0x3e140d76	0.1445826
206	0x3e23ed6b	0.16008537
207	0x3dd45378	0.10367483
208	0xbcc3cf09	-0.023902433
209	0x3d218891	0.03943688
210	0xbcd7c6e1	-0.02633995
211	0x3e216f3e	0.15765092
212	0xbcffd0ee	-0.031227555
213	0x3e0a8e80	0.13530922
214	0x3e2a1f8f	0.16613601
215	0x3cbf82ab	0.023377737
216	0xbd1c8c16	-0.038219534
217	0x3c57e39f	0.013176828
218	0xbcf13912	-0.029446159
219	0x3e25a00d	0.16174336
220	0x3e026efb	0.12737648
221	0x3e1d1040	0.1533823
222	0x3e341a4e	0.1758816
223	0x3dc6aa70	0.09700477
224	0x3d91a760	0.071120024
225	0x3d2ef559	0.04271445
226	0x3df6e3f2	0.12055196
227	0x3d72e95f	0.05930459
228	0x3e5602a0	0.20899439
229	0x3dbccfa4	0.09219292
230	0x3dd838a6	0.1055768
231	0x3e086a1b	0.13321726
232	0x3ce9bc92	0.0285323
233	0x3e087320	0.13325167
234	0x3d2eaca3	0.042645108
235	0x3d6411f4	0.055681184
236	0x3dfef1a0	0.1244843
237	0x3e1d7008	0.15374768
238	0x3e209ade	0.15684077
239	0x3e17faa7	0.1484171
240	0x3e08b908	0.13351834
241	0xbd82aef8	-0.06381029
242	0xbc2e84bf	-0.010651766
243	0x3de11adf	0.109914534
244	0x3b9c8c67	0.0047774795
245	0x3e9403ac	0.2890905
246	0x3e247ad9	0.16062488
247	0xbd7b3588	-0.06133035
248	0xbd8d1a9c	-0.06889841
249	0x3ce08b0f	0.027410058
250	0x3e27fdbe	0.16405389
251	0x3e1fc9ec	0.15604371
252	0x3dcae549	0.09907014
253	0x3cde7b0d	0.027158285
254	0x3db9d711	0.09074224
255	0x3cac4af5	0.021031836

lstm.bias_hh_l0 f4 [512]
0	0xbc95a6fd	-0.018268103
1	0xbde95bb5	-0.11394445
2	0xbcd7d34d	-0.026345873
3	0xbd2fceb4	-0.042921737
4	0xbbf35349	-0.0074257
5	0x3dc0f139	0.094210096
6	0xbced9282	-0.029000524
7	0x3cbef560	0.023310363
8	0xbc4de78d	-0.012567413
9	0xbd0698f8	-0.032860726
10	0x3cf46142	0.029831532
11	0xbda99f52	-0.08282341
12	0x3c3661c9	0.011131712
13	0xbd335331	-0.04378051
14	0x3bb993b4	0.0056633595
15	0x3d2e12a9	0.042498264
16	0x3d81ba69	0.06334383
17	0xbccb5502	-0.024820808
18	0x3d5a5401	0.05330277
19	0x3e19b42e	0.1501014
20	0xbda02526	-0.078195855
21	0x3d9310ed	0.07180963
22	0x3e174f1d	0.14776273
23	0x3dbb247c	0.09137818
24	0xbd11b25a	-0.03557048
25	0xbd852d73	-0.065028094
26	0xbdb5b8a0	-0.08873105
27	0xbc996661	-0.018725576
28	0xbd4a5a6d	-0.049402643
29	0x3c178b20	0.009249479
30	0x3d3303b8	0.04370472
31	0xbd469a1b	-0.04848681
32	0x3e050971	0.12991883
33	0x3e1d8ae4	0.15385014
34	0x3d86216b	0.06549343
35	0x3dc19f1c	0.09454176
36	0x3be8ac99	0.0071006534
37	0xbdd95e68	-0.1061371
38	0xbd992d65	-0.074793614
39	0x3d16472a	0.03668896
40	0x3d92edee	0.07174288
41	0x3cca5934	0.024700738
42	0x3de80eac	0.113309234
43	0x3e002800	0.12515259
44	0xbdcfe7c2	-0.10151626
45	0x3e50e042	0.20398048
46	0x3a44aa84	0.00075022154
47	0x3dd6a0e6	0.10479908
48	0xbd151dd2	-0.036405392
49	0x3d59e1d3	0.05319388
50	0x3d2c5c02	0.042079933
51	0x3d02a574	0.03189607
52	0x3da7fec7	0.08202892
53	0xbd2712f1	-0.04078955
54	0x3d036ee2	0.032088168
55	0x3d414544	0.047185197
56	0xbd89d2f7	-0.067296915
57	0xbc41adf1	-0.011821256
58	0x3e1ebd6e	0.15501949
59	0xbc0458b5	-0.00807779
60	0xbc8ba6a5	-0.017047236
61	0xbe0aea52	-0.13565949
62	0x3c9c2dec	0.019064866
63	0x3d699792	0.057029314
64	0x3cdb1473	0.02674315
65	0x3d9774d6	0.073953316
66	0xbcd6ce3c	-0.026221387
67	0xbd084b7a	-0.033275105
68	0x3d47e8ee	0.048806123
69	0x3d16ede2	0.036847956
70	0x3dbcb014	0.09213272
71	0xbc1c3889	-0.009534963
72	0xbdea16fb	-0.114301644
73	0x3cf19ccc	0.029493712
74	0x3c0eb399	0.008709812
75	0xbdcac4b8	-0.099008024
76	0xbd95d9a8	-0.07316905
77	0xbddfb599	-0.10923309
78	0x3cd25179	0.025673615
79	0x3dc1eb75	0.09468738
80	0x3d8be3d4	0.06830564
81	0x3d68e7a2	0.056861527
82	0x3d36365f	0.044485446
83	0xbe21c9d2	-0.15799645
84	0xbcd4518d	-0.025917793
85	0x3da3a205	0.07989887
86	0x3d9e2509	0.07721908
87	0xbcc27fc0	-0.023742557
88	0xbbf5e8d9	-0.0075045642
89	0x3d49f941	0.049309973
90	0xbd210192	-0.03930814
91	0x3d91ac85	0.071129836
92	0x3d26d80e	0.04073339
93	0x3d838365	0.06421546
94	0x3e04cca0	0.12968683
95	0xbcaf82ad	-0.021424616
96	0x3d3a2aa2	0.045450814
97	0x3d0d76fe	0.034537308
98	0xbdf8e596	-0.12153165
99	0x3d63f011	0.055648867
100	0xbe03489c	-0.12820667
101	0xbd39624f	-0.04525977
102	0xbd674c8d	-0.05646949
103	0x3e4075c4	0.18794924
104	0xbd17a7d0	-0.037025273
105	0x3d7fa171	0.062409822
106	0x3e23e7bb	0.16006367
107	0xbd70c85b	-0.058784824
108	0x3d1a0394	0.03760107
109	0x3d174573	0.036931466
110	0x3dc2383e	0.094833836
111	0x3e0491b5	0.12946208
112	0x3c4d7edd	0.012542454
113	0x3d23fec4	0.040037885
114	0x3c803493	0.01565007
115	0x3e049220	0.12946367
116	0x3bac8609	0.0052650017
117	0xbd9596eb	-0.07304176
118	0x3cd5d6bc	0.02610337
119	0x3cbc8475	0.02301238
120	0xbd5df1d4	-0.054185703
121	0x3cf07fdc	0.029357843
122	0x3df47509	0.11936385
123	0x3d2772d2	0.040880986
124	0x3cfa6898	0.030567452
125	0x3db87367	0.09006386
126	0x3d03b972	0.032159276
127	0x3d1c8f5e	0.038222663
128	0xbd436c03	-0.04771043
129	0x3e076a18	0.13224065
130	0x3e273eba	0.16332522
131	0x3e0e3365	0.13886793
132	0x3daef870	0.085434794
133	0xbb55181d	-0.0032515593
134	0x3cdbc7fd	0.02682876
135	0x3d2f8bc5	0.042857904
136	0x3e6f8baa	0.23393121
137	0x3e0c6a42	0.13712409
138	0x3d5c3ce6	0.053769015
139	0x3de4e08c	0.111756414
140	0x3d596648	0.05307606
141	0x3c1a95cf	0.009435131
142	0x3dd6f54d	0.10496006
143	0x3df287a1	0.118422754
144	0x3e018248	0.12647355
145	0x3dc84d6e	0.097803935
146	0xbca3a3ee	-0.019975629
147	0x3e5fcc8f	0.21855377
148	0x3cbd58be	0.023113605
149	0x3da57110	0.080782056
150	0x3d4fe880	0.05075884
151	0xbbbbf741	-0.005736262
152	0x3e147d52	0.14500931
153	0x3cdcbcd3	0.026945507
154	0xbd343de2	-0.04400433
155	0x3e522a68	0.20523989
156	0x3dfe7bfc	0.12425992
157	0x3e5257a9	0.20541252
158	0x3e1ebc68	0.15501559
159	0x3d443c5f	0.047909137
160	0x3e1868ae	0.14883682
161	0xbb831dc0	-0.004001349
162	0x3e08bb2e	0.13352653
163	0x3de30245	0.11084417
164	0x3e08a94a	0.13345829
165	0x3e1d79cc	0.15378493
166	0x3dc39f83	0.09551909
167	0x3db1d034	0.0868229
168	0xbd5fe584	-0.054662243
169	0x3de18d03	0.11013224
170	0xbb94cf68	-0.0045413263
171	0x3e1c0e45	0.15239818
172	0x3dffabad	0.124839164
173	0xbd6058f5	-0.054772336
174	0x3e23fcf3	0.16014461
175	0x3d8d5fe9	0.06903059
176	0xbc91fb60	-0.01782006
177	0x3dcb9ce3	0.09942033
178	0x3db694a6	0.08915071
179	0x3db1a066	0.08673172
180	0x3e100572	0.14064577
181	0x3df50cb7	0.11965316
182	0x3cc832ea	0.02443834
183	0x3e19e58a	0.15028968
184	0xbd8c8756	-0.06861751
185	0x3e176548	0.1478473
186	0x3d033be3	0.032039534
187	0x3d29a8ae	0.04142063
188	0x3cfe5c88	0.031049982
189	0xbdc4b616	-0.09605043
190	0x3dfe07c8	0.12403828
191	0x3cac50ea	0.021034677
192	0x3d8e75d1	0.069560654
193	0x3c074b1d	0.0082576545
194	0x3df10d3b	0.11770102
195	0x3e129c79	0.14317502
196	0x3e015836	0.12631306
197	0x3e0774fa	0.13228217
198	0x3e16e33d	0.14735122
199	0x3d93279f	0.071852915
200	0x3d8f270d	0.0698987
201	0x3c8d8d84	0.017279394
202	0x3e62486d	0.2209794
203	0x3c194dfd	0.009356973
204	0x3e8421c9	0.25807026
205	0x3d9a9c3b	0.0754933
206	0x3ddf44e2	0.1090181
207	0x3dcabb2c	0.098989815
208	0xbb107840	-0.002204433
209	0x3e12510e	0.14288732
210	0x3d7220ff	0.0591135
211	0x3da4b63b	0.0804257
212	0x3d39bf1c	0.04534827
213	0x3d9037d9	0.07041902
214	0x3e3689b9	0.17825975
215	0x3daf73a9	0.08566982
216	0xbbb192a7	-0.0054190936
217	0x3dab2e26	0.083584115
218	0x3dbf94fe	0.0935459
219	0x3c0ce162	0.008598657
220	0x3e0ac2ab	0.13550822
221	0x3db481ef	0.08813845
222	0x3e06a1ba	0.13147631
223	0x3d955ba8	0.07292873
224	0x3e405666	0.18782958
225	0x3d9507e7	0.07276898
226	0x3d889057	0.06668156
227	0x3cb74d3b	0.022375694
228	0x3dea3036	0.11434977
229	0x3df1b992	0.11802973
230	0xbbe3ff68	-0.006957937
231	0x3c9c6a22	0.019093577
232	0x3da22aff	0.07918357
233	0x3d9e4eff	0.07729911
234	0x3dffb1da	0.12485094
235	0x3d9d2dce	0.07674752
236	0x3e00ff57	0.12597404
237	0x3dabf661	0.083966024
238	0x3e14e75e	0.14541385
239	0x3da4658d	0.08027182
240	0x3c8764db	0.016527584
241	0x3dab36cc	0.08360061
242	0x3d96e749	0.07368333
243	0x3c510f06	0.0127599295
244	0xbcaf87e0	-0.021427095
245	0x3e682c03	0.22673039
246	0x3d8e36a5	0.06944016
247	0xbc5694a8	-0.013096966
248	0xbce089d3	-0.02740947
249	0x3e1e3912	0.15451458
250	0x3d9223e4	0.07135752
251	0x3e49c7bd	0.197051
252	0x3df86a39	0.12129635
253	0xbd87bb45	-0.06627516
254	0x3c97fcdc	0.01855319
255	0xbc2c29cf	-0.010508015

fc.weight f4 [10, 128]
0	0x3da86065	0.08221511
1	0xbde96d81	-0.11397839
2	0x3da71715	0.081586994
3	0xbe61b4a4	-0.22041565
4	0xbee1cab7	-0.44099972
5	0xbda5068b	-0.080578886
6	0x3ea3af8b	0.31969866
7	0xbdbc96c4	-0.09208444
8	0xbed9aa70	-0.42512846
9	0xbdfb3398	-0.122657
10	0x3dce3c16	0.10070054
11	0xbe887fbf	-0.26659963
12	0xbdb53986	-0.08848862
13	0xbe08832d	-0.1333129
14	0x3e563a84	0.2092076
15	0x3db406b9	0.08790345
16	0x3d296ec5	0.041365404
17	0x3e153a62	0.14573053
18	0x3eb0f9b2	0.34565502
19	0x3e985498	0.2975204
20	0xbe0fd94b	-0.14047734
21	0xbdc4061d	-0.095714785
22	0xbeafa5b6	-0.34306115
23	0x3e51cf9a	0.2048935
24	0x3e0223dc	0.12708992
25	0xbe9b628a	-0.30348617
26	0xbe066bf2	-0.13127115
27	0xbc024b4d	-0.007952523
28	0xbe04af51	-0.12957503
29	0x3e3e88a7	0.18606816
30	0x3df06547	0.11738067
31	0xbd1d4482	-0.038395412
32	0xbefda8bb	-0.49542794
33	0xbe0ea8a7	-0.13931523
34	0x3e95fbad	0.29293576
35	0xbebc5b50	-0.36788416
36	0x3c9f0764	0.019412704
37	0x3e31e02e	0.17370674
38	0x3ea8294f	0.32844016
39	0xbdb35a28	-0.0875743
40	0x3eef1603	0.4669648
41	0xbdac377d	-0.08409021
42	0xbeb7672b	-0.35820898
43	0x3eacd712	0.33757836
44	0x3e86ae44	0.2630483
45	0x3e8ea0a9	0.2785695
46	0x3ace767f	0.0015751867
47	0x3d0ec3dd	0.03485476
48	0xbced2d4c	-0.028952263
49	0xbe68340f	-0.22676109
50	0x3e835bf1	0.25656083
51	0xbd9c3845	-0.0762792
52	0xbdfdd999	-0.12395019
53	0x3d9dcc5d	0.07704995
54	0x3ebfde2f	0.374742
55	0x3ca0b7e4	0.019618936
56	0x3f245096	0.64185464
57	0x3de352af	0.11099755
58	0x3dd93d3b	0.10607382
59	0xbe4baf52	-0.19891098
60	0x3dc5957c	0.096476525
61	0xbdfa3028	-0.12216216
62	0xbdb08306	-0.08618741
63	0xbdc6d8a1	-0.097092874
64	0xbebbf2c1	-0.36708644
65	0xbe720673	-0.23635273
66	0xbb0cc3fe	-0.0021479125
67	0x3cf06d55	0.029349009
68	0x3eac8729	0.3369687
69	0xbe7ceaa1	-0.24698879
70	0xbdfec668	-0.12440187
71	0x3c50b277	0.012737862
72	0x3ba6ba63	0.005088137
73	0xbe7f8a94	-0.24955207
74	0x3ed54433	0.41653594
75	0x3e009caf	0.1255977
76	0x3e77aecc	0.24187773
77	0x3d93d76b	0.07218822
78	0xbc83a792	-0.016071115
79	0xbd979791	-0.07401956
80	0xbcf8f263	-0.030389016
81	0xbe260fd9	-0.16216983
82	0x3e2e6fe2	0.17034867
83	0xbce9bdf8	-0.028532967
84	0xbe916d2c	-0.28403604
85	0xbc20adb9	-0.009807044
86	0x3ca93429	0.020654755
87	0x3e99c8b2	0.3003593
88	0xbd8aaf96	-0.067717716
89	0xbe202835	-0.15640338
90	0xbeb52284	-0.35377896
91	0x3e13736d	0.143995
92	0x3e0a5d83	0.13512234
93	0x3e0981ee	0.1342847
94	0x3dc33931	0.09532393
95	0xbe5f416f	-0.21802305
96	0xbdec79f9	-0.11546702
97	0x3ddbb961	0.107287176
98	0x3e8506ca	0.25981742
99	0xbe2825e9	-0.16420712
100	0xbeb30b65	-0.3496963
101	0xbef13463	-0.4711028
102	0x3dad932f	0.08475339
103	0xbea63db3	-0.32468948
104	0xbca2c419	-0.019868897
105	0xbe696964	-0.2279411
106	0x3e48973d	0.19588943
107	0xbc465aab	-0.012106578
108	0xbe877e55	-0.2646357
109	0xbd89ba12	-0.06724943
110	0xbda070f5	-0.07834045
111	0x3e12a086	0.14319047
112	0xbe15dca4	-0.14634949
113	0x3e179936	0.14804539
114	0xbe695cb8	-0.22789276
115	0x3ec1c6c8	0.3784697
116	0x3e888ff7	0.26672336
117	0x3d753c53	0.059871983
118	0xbec6112f	-0.38684985
119	0xbe2c29ed	-0.16812868
120	0xbddf9143	-0.10916378
121	0xbd921179	-0.07132239
122	0x3e023afd	0.12717815
123	0x3d9a102e	0.07522617
124	0x3d5562e4	0.052096263
125	0xbe3fa8b8	-0.18716705
126	0xbda47921	-0.08030916
127	0xbd3e757f	-0.04649877
128	0xbd71ba0f	-0.05901533
129	0x3d8a8af6	0.06764786
130	0x3dbcb2f7	0.09213822
131	0x3d81913e	0.06326531
132	0xbd5fe3dd	-0.054660667
133	0xbdb1aa05	-0.08675007
134	0xbe16e0a5	-0.14734133
135	0x3ea3f0e8	0.32019734
136	0x3e9b3643	0.30314836
137	0xbd94eec0	-0.072721004
138	0x3e76a4b7	0.24086271
139	0x3df2d1e8	0.11856443
140	0xbe23872f	-0.15969537
141	0x3e9adfa3	0.30248746
142	0xbcbbac7f	-0.022909401
143	0xbda98c54	-0.082787186
144	0xbe6c1b7a	-0.23057356
145	0xbe8ca5e8	-0.27470326
146	0x3cadec83	0.021230942
147	0x3ea23e1f	0.3168802
148	0x3deac3d6	0.11463134
149	0x3f4c0db5	0.79708415
150	0x3e56edee	0.209892
151	0xbdb70530	-0.08936536
152	0xbe8d3b39	-0.27584246
153	0xbce78eda	-0.02826636
154	0x3d92a79c	0.07160875
155	0x3ea7c5e1	0.32768157
156	0x3e6d81d3	0.23194055
157	0xbdde1cd7	-0.108453445
158	0x3d533e3a	0.051573016
159	0xbeb848c4	-0.35993016
160	0x3e264d9d	0.16240545
161	0xbe970c3c	-0.29501522
162	0xbe61c653	-0.22048311
163	0xbc57a373	-0.013161528
164	0x3e84b80b	0.25921664
165	0xbe593ba6	-0.2121416
166	0xbe2a8b87	-0.16654788
167	0xbe43d855	-0.19125493
168	0x3e81c792	0.25347573
169	0xbbcc06a8	-0.0062263794
170	0xbdc6965a	-0.09696646
171	0xbe345b48	-0.17612946
172	0xbebd80c2	-0.37012297
173	0x3dd0f2fa	0.10202594
174	0xbec948c4	-0.39313328
175	0xbdb32e65	-0.087490834
176	0x3d568e49	0.052381787
177	0xbcc14d98	-0.02359657
178	0x3eb67cbd	0.35642043
179	0xbdfbd572	-0.12296571
180	0xbec7e679	-0.39043024
181	0x3ec1fc85	0.3788797
182	0xbe04461d	-0.12917371
183	0x3e5f54be	0.2180967
184	0xbdab5e53	-0.083676
185	0xbdbb2480	-0.09137821
186	0xbf1b5485	-0.6067584
187	0x3eaf9f48	0.3430121
188	0x3e89f645	0.269457
189	0x3dba1156	0.09085338
190	0xbe4d4391	-0.20045306
191	0x3d3bec0a	0.0458794
192	0xbe8efc7f	-0.27927014
193	0x3e8f4597	0.2798278
194	0x3e3324a3	0.17494445
195	0xbec2c721	-0.38042548
196	0xbeb04006	-0.34423846
197	0x3e878ea3	0.2647601
198	0x3ec80c70	0.3907199
199	0xbe069d9a	-0.13146058
200	0xbea45f2e	-0.32103866
201	0xbdff4cbf	-0.1246581
202	0xbdc5afca	-0.0965267
203	0xbea9da05	-0.33174148
204	0xbe9530e4	-0.29138863
205	0x3d673979	0.056451295
206	0xbe9f3272	-0.31093174
207	0xbd19de73	-0.03756566
208	0x3dcc103d	0.09964035
209	0xbdc99b84	-0.098441154
210	0xbc008c70	-0.007845983
211	0x3ba839eb	0.0051338575
212	0x3e2a9e93	0.16662054
213	0x3ec0899a	0.37604982
214	0xbe3ec752	-0.18630722
215	0xbe8fa647	-0.28056547
216	0x3e5194ac	0.2046687
217	0xbe4a1cc9	-0.19737543
218	0xbe817bf4	-0.2528988
219	0x3e28acc1	0.1647215
220	0x3ce9f38a	0.028558511
221	0x3e8b7fea	0.27246028
222	0x3e010a15	0.12601502
223	0x3e624ae4	0.22098881
224	0xbeea9af0	-0.45821333
225	0x3e62362f	0.22090982
226	0xbe550155	-0.2080129
227	0x3e0b1d98	0.13585508
228	0x3e421e74	0.1895693
229	0x3df0c449	0.117561884
230	0x3d8b3ea1	0.06799055
231	0x3e1a25bc	0.15053457
232	0x3eaf868c	0.3428234
233	0xbc5cc79e	-0.013475327
234	0xbe4b3aff	-0.19846724
235	0xbec56dd5	-0.38560358
236	0x3e2c448d	0.16823025
237	0xbe143516	-0.14473376
238	0xbec26b66	-0.37972564
239	0xbe581ea1	-0.21105434
240	0x3ed6dc7f	0.419651
241	0x3d62d141	0.05537534
242	0x3ed73cef	0.42038676
243	0x3d95504e	0.072907075
244	0x3d9157e5	0.07096843
245	0x3ddc2dd8	0.107509315
246	0x3cc5675d	0.024097139
247	0x3daf769f	0.08567547
248	0xbe894bfc	-0.26815784
249	0x3cd940f1	0.026520224
250	0x3e8c89ef	0.27448985
251	0x3dda00d2	0.10644688
252	0x3d3ac162	0.04559458
253	0x3de9bccb	0.114129625
254	0xbd752b77	-0.059855904
255	0x3e3a98a6	0.18222293

fc.bias f4 [10]
0	0x3d3faac2	0.046793707
1	0xbc777612	-0.015103834
2	0x3c62bd8d	0.013839138
3	0xbdc58652	-0.0964476
4	0xbd12a9cd	-0.035806466
5	0xbd162b18	-0.03666219
6	0xbe57dc63	-0.21080165
7	0x3e0dc3b5	0.13844188
8	0x3cb002dc	0.021485738
9	0x3c0d792c	0.008634847
