shallow_net.pth (torch, 320453 bytes, 4 tensors)

fc1.weight f4 [100, 784]
000000 c0 fa c1 bb e2 63 0b 3d db 46 08 3d 61 df 06 3c
       -0.0059197843 0.034030803 0.033270698 0.008231969
000010 90 94 f8 3c dc e9 dc bb 73 25 02 bc 86 f3 a3 3c
       0.030344278 -0.0067417454 -0.007943499 0.020013582
000020 43 2f 52 3c 5a 8e 05 bc 82 25 10 3d 61 6c 57 bc
       0.012828651 -0.008151615 0.03519202 -0.013148398
000030 e9 f3 90 bc 96 44 1b bc 9f 90 25 3d fe 79 89 3c
       -0.01769443 -0.009476801 0.040421125 0.016781803
000040 2a d3 46 bc c5 80 d6 bc 3a 54 3f 3c 22 54 c7 bc
       -0.012135306 -0.026184449 0.011677796 -0.02433211
000050 17 c2 ca bc de 07 2d bc d2 90 ed 3c 44 43 64 bc
       -0.024750752 -0.010560958 0.02899972 -0.013932053
000060 ce be cf bb 46 c5 d3 3c de 4e 44 3b 48 c0 27 bc
       -0.0063398844 0.025850903 0.0029954235 -0.0102387145
000070 01 d4 ed bc ae 25 10 3d 53 6e d3 bc 10 d1 80 3c
       -0.029031755 0.035192184 -0.025809443 0.015724689
000080 96 74 91 3c 82 77 64 3c 61 e7 9f ba 73 c8 ad 3c
       0.017755788 0.0139445085 -0.0012199694 0.021213746
000090 d1 f4 39 3c cb 38 99 3c 47 be d5 bc a2 cd d8 bb
       0.011349873 0.018703839 -0.026091708 -0.00661631
0000a0 7a a0 4a 3b 8d e1 0b 3d e3 f8 9c 3c 58 90 06 3d
       0.0030918405 0.03415065 0.019161647 0.0328525
0000b0 54 a2 2a 3d 5e bd 2c 3d 72 7a 7c 3c ef a9 49 bc
       0.041658714 0.042172782 0.015410053 -0.012308582
0000c0 99 22 27 3d a8 eb 67 bc c7 67 29 3d 5c b5 8a bb
       0.04080448 -0.014155306 0.041358735 -0.0042330455
0000d0 ec 47 e4 3c 86 28 78 bb ea 90 d3 bc f2 52 1d 3d
       0.027866326 -0.003786595 -0.025825936 0.03840918
0000e0 8d 3a fc 3c bb d2 4f 3c ed 58 90 3c 3e a3 23 3d
       0.030789638 0.012684519 0.017620528 0.0399506
0000f0 50 5a d6 bc 8a 70 c9 3b 66 0a 5c bc 8b ec a0 bc
       -0.026166111 0.006147449 -0.013430214 -0.019644042
000100 8b bd 6e 3c bf d3 82 3b aa 3f 2c 3d c1 3d 16 3c
       0.014571558 0.0039925273 0.042052902 0.009169997
000110 06 9b 59 3c d3 06 03 3d a9 81 d3 3b a5 6b ba 3b
       0.013281589 0.03198893 0.0064546657 0.0056891018
000120 59 05 cd bb e8 10 a9 3c 82 74 50 ba 1c af c9 bb
       -0.006256741 0.020637944 -0.00079519313 -0.006154908
000130 ed e2 64 bc 09 47 6f bc b5 01 57 3c 48 ab 02 3d
       -0.013970119 -0.014604338 0.013122966 0.031901628
000140 21 14 82 3c 96 f0 69 3c dc 9c c8 3c 2b a3 22 3d
       0.015878739 0.014278552 0.024488859 0.03970639
000150 c2 e9 e3 bc 4c 7b fa 3a d2 43 a6 3c 03 2c 12 3d
       -0.027821425 0.0019110232 0.020296011 0.035686504
000160 e4 fc 27 bb 99 10 16 3d 94 9d 31 3d 3a f4 13 3c
       -0.0025632912 0.036636923 0.04336317 0.009030396
000170 98 17 bf bc 0d a3 6d bb 72 2b 69 3d 5e 59 8c 3d
       -0.02332668 -0.0036260516 0.0569262 0.06852983
000180 b9 fa 64 3d b0 8a 9b 3c aa 5e 93 3d 5f b7 8f bc
       0.05590317 0.01898703 0.0719579 -0.017543493
000190 47 00 85 bc ec b6 8a bd 4b 3c e1 3a 77 96 e3 3c
       -0.016235484 -0.06773171 0.0017184106 0.027781708
0001a0 ec db 10 3b 86 3e fb 3c 18 91 22 bc 0c 23 7d bc
       0.002210374 0.030669462 -0.009922288 -0.01545025
0001b0 bf df 13 bc 47 22 99 bb 07 c9 21 3d 86 1f 7f 3b
       -0.009025513 -0.0046732756 0.039498355 0.0038928702
0001c0 36 11 08 3d 14 af 1b 3d f0 7a 0e 3d 83 9d 0a bc
       0.03321954 0.038008764 0.03478521 -0.008460405
0001d0 fb 27 dc 3b 1e b1 c2 38 7f db 53 3c 9f 0c 9c 3b
       0.006718633 9.2836315e-05 0.01293075 0.0047622467
0001e0 39 4e d7 3a d8 26 4f 3d 0f 3b 98 3d ac 74 55 3c
       0.001642651 0.050574154 0.074331395 0.013028305
0001f0 d5 9c a0 bb 7e b1 7f bd be 19 9d 3c 85 e5 81 bb
       -0.0049015083 -0.06242513 0.019177314 -0.0039641284
000200 da 4a 67 bb 5a bc c6 bd f9 f2 a5 bd 37 43 38 3d
       -0.0035292418 -0.09703894 -0.08102984 0.044985976
000210 81 80 c2 bc d6 89 ce bc 59 ef 9b bb 73 3c cf 3c
       -0.023742916 -0.02521221 -0.004758757 0.02529738
000220 fd 51 fd bb f1 82 98 3c 83 48 0d 3c 8d 53 06 3d
       -0.007730721 0.018617125 0.008623245 0.032794524
000230 b6 8e da 3c 71 a6 9f 3c 0e 81 b2 bc ff c1 df bc
       0.026679378 0.019488545 -0.021790054 -0.027314184
000240 02 d2 1f 3c ea 7e 3f bd fc cc 04 bb 98 1b 38 bd
       0.00975466 -0.046751894 -0.0020263782 -0.04494819
000250 2d 9f ea 3c ba 7c e4 bc 1a 74 15 bc c4 e0 98 bd
       0.028640354 -0.027891506 -0.009121919 -0.07464746
000260 86 8e 82 bd ef d6 b6 bd 78 cf 01 3d d5 db 1a 3c
       -0.063748404 -0.08927714 0.031692 0.009451826
000270 dc 99 76 3d df aa 31 3c f9 df d9 3c 1b 13 06 3d
       0.060205325 0.0108439615 0.026596056 0.032733064
000280 1d c1 82 3d a6 62 07 3d d6 a6 26 ba ce d1 d4 3c
       0.0638449 0.033053063 -0.0006357258 0.025978949
000290 4b 6a 58 3d 3a 4c 08 3d 7f 25 74 3c 72 8b 46 bb
       0.052835744 0.03327582 0.014901518 -0.0030295518
0002a0 c8 8c d0 bb 83 ec e5 3c 25 de 8e 3c c7 d7 6d 3c
       -0.0063644387 0.02806688 0.017439911 0.014516777
0002b0 6c 06 a7 bb 20 1c 6b bd b6 f9 32 bd cc c9 b6 bd
       -0.005097201 -0.05739987 -0.043695174 -0.089252084
0002c0 5c 09 8f bd b9 73 14 be 79 a5 2d be eb f5 f9 bd
       -0.06984207 -0.1449727 -0.16957654 -0.12205108
0002d0 63 e3 a8 bd f6 29 0c be f3 d1 fb 3c 06 70 28 3e
       -0.082464956 -0.13687882 0.03073976 0.16448984
0002e0 56 2c 20 3e a2 ab d4 bd 62 03 06 be f4 62 22 be
       0.15641913 -0.10384299 -0.13087228 -0.1585806
0002f0 b9 9b 08 be 48 38 93 bc 83 5d a3 bb 5e b0 d0 b9
       -0.13340653 -0.017971173 -0.0049855127 -0.00039804255
000300 32 e6 0c bd 81 ba b4 bb 25 f8 58 bc 81 32 47 bc
       -0.03439922 -0.005515397 -0.013242756 -0.012158037
000310 e7 4d 58 bc 1c b3 19 3d 0f 69 c1 bc 42 a8 10 3d
       -0.013202167 0.037524328 -0.023609666 0.035316713
000320 76 89 84 bc 8d b0 66 bd 1e 53 dc bc 1c 3e 32 bd
       -0.016178828 -0.056320716 -0.026895102 -0.043516263
000330 2d d7 b7 bd 61 99 13 be 9a bc 16 be 17 a6 1f 3c
       -0.089765884 -0.14413978 -0.14720383 0.009744189
000340 34 1b 03 be 5c 28 7f bd 5f 73 e6 3c 0c c7 ac 3d
       -0.12803346 -0.06229435 0.028131185 0.08436403
000350 b5 a9 e3 3d e8 05 b9 3a c8 5f 41 be c3 0d 71 be
       0.111163534 0.001411614 -0.18884194 -0.23540406
000360 4d 89 ea bd 65 74 85 bd 0c b7 d5 3c f7 66 1d bd
       -0.11451969 -0.06516341 0.02608826 -0.038428273
000370 ff 2b 1b 3d 07 11 e6 3c 17 71 11 bd b5 af 25 3d
       0.037883755 0.028084291 -0.03550824 0.04045077
000380 d1 3c 04 3d 02 97 3c bc ac b8 ad bc 9a f0 89 37
       0.03228456 -0.011510612 -0.021206222 1.6443712e-05
000390 ae 88 10 3c ba 6f 74 bd a1 cd a7 bc 25 81 cb bc
       0.0088216495 -0.059676863 -0.020483794 -0.024841854
0003a0 9e 93 7f bd 71 a0 7b bc 9c 78 a2 bc b2 fd 04 be
       -0.062396638 -0.015358076 -0.019832902 -0.12987402
0003b0 5f 76 1c be a6 ae 43 3d 5f 19 06 3e 24 85 34 3e
       -0.1527953 0.04777398 0.13095616 0.17628914
0003c0 7c ee 0e 3e ce ff 89 3d f0 23 06 be c0 28 d7 bd
       0.13958162 0.06738244 -0.13099647 -0.10505819
0003d0 ad 6e 78 bd 0a 3d 15 bd 2a b7 2e bd a7 8f ea bc
       -0.060652424 -0.036435165 -0.042655148 -0.028632952
0003e0 15 e1 da 3c 60 5f d0 3c 3a 63 12 bc 91 d5 a6 ba
       0.026718656 0.025436103 -0.00893479 -0.0012728443
0003f0 b2 7f 1e 3c 13 5f 33 bc 69 92 12 3d e4 2a a2 bc
       0.009674 -0.01094796 0.03578416 -0.019795842

fc1.bias f4 [100]
000000 01 2b ed bc f3 e3 b6 bc 9b 3f fd bb 88 fb 91 bc
       -0.02895117 -0.022325492 -0.0077285296 -0.017820135
000010 4f 87 38 bd 7d a9 9e 3c e1 b2 38 3d df c0 66 3b
       -0.045050915 0.019367928 0.045092467 0.0035210175
000020 ee 9b 03 bd 9b 61 d1 3c c0 df 47 bc 4d e9 f7 bc
       -0.032131128 0.025559237 -0.012199342 -0.030262614
000030 c5 5e 0b 3d 05 73 e6 3b 2e a1 f5 bc 88 84 4c 3c
       0.034025926 0.0070327544 -0.029984083 0.01248277
000040 1e 66 4f bc ae 68 41 bc 2c a7 06 3d d4 2f db 3b
       -0.012658624 -0.011804743 0.03287427 0.006689051
000050 d7 0e d7 3b 65 d2 af bc 58 e1 e6 bc bd 79 d2 3c
       0.0065630483 -0.021462629 -0.028183624 0.025692815
000060 1d f5 a5 bc 92 c8 54 3b 74 d7 94 bc eb 83 47 3a
       -0.02025848 0.0032468182 -0.018169142 0.0007610905
000070 b2 62 42 3b 0e c1 9a bc cb 15 66 3d 69 34 42 bc
       0.0029660878 -0.018890884 0.056173127 -0.011853316
000080 e9 f4 76 bc 0c 3b 54 bc 35 9f 94 bc 2c 9b 35 3a
       -0.01507304 -0.012953531 -0.018142322 0.00069277245
000090 a5 7f fa 3c 22 c4 ed bc e5 1e 0d bd 45 e7 b2 3b
       0.030578444 -0.029024187 -0.03445329 0.0054596984
0000a0 5b b4 64 bc f9 07 ec 3b 26 28 5c 3c bf cd b1 bc
       -0.013959016 0.007203099 0.0134373065 -0.021704553
0000b0 9e 1a 8f 3b de 34 d4 bc e7 aa b9 3c 65 7b e0 bc
       0.0043671867 -0.025904115 0.0226645 -0.02740259
0000c0 41 a0 f1 bc 7f 12 d4 bc a4 93 c5 3c d1 1d 58 bb
       -0.02949536 -0.025887726 0.024118252 -0.0032976756
0000d0 2b c5 49 3d 59 16 20 ba 1f 51 fd 3c 96 db 2c 3d
       0.0492603 -0.00061068457 0.03092247 0.0422016
0000e0 bd 01 15 bd 22 60 d7 3c 19 0e c7 3c 65 cf e8 3c
       -0.03637861 0.026290957 0.024298714 0.028419206
0000f0 9e 7a 6c 3c 34 7a 1c bd a6 6d 16 3c 9f de 37 3d
       0.014433531 -0.03820248 0.009181416 0.044890042
000100 25 b9 67 bd 0e d3 3d 3c d8 5f 59 bc 3e 1a 2f bb
       -0.056573052 0.011585964 -0.01326748 -0.0026718522
000110 c1 5c 04 3d d8 a4 5c ba 94 b2 9c 3c 1f 4e 07 3c
       0.03231502 -0.00084168976 0.019128121 0.008258372
000120 fc 86 0e bc a4 5e 88 bc a5 a8 27 bd 66 1d 21 3c
       -0.008699175 -0.01664669 -0.040932316 0.009833669
000130 8f 76 39 3c 07 c8 85 ba fc 13 14 3c 6a 4d 48 3c
       0.0113197705 -0.0010206708 0.009037968 0.012225488
000140 9f d8 c0 3b 17 d7 82 3c e4 f3 37 3c 28 56 97 bc
       0.0058851982 0.015971703 0.011227582 -0.0184737
000150 e3 cf c3 3a 34 ab c1 3c 08 4c 41 bd 7e 9f 62 bc
       0.0014939274 0.023641206 -0.04719165 -0.013831971
000160 e2 75 b9 bc 5c 6e d3 bc c2 f3 46 bc ef 8f 26 bd
       -0.022639219 -0.02580946 -0.012143077 -0.04066461
000170 b6 1f 3e bd 7f 9d 35 bc d3 8c ad 3c 80 66 ad bb
       -0.04641696 -0.011084913 0.021185314 -0.00529176
000180 d0 54 4b 3d 44 f6 f1 3c fa 0a 01 3d f5 83 aa 3c
       0.04964143 0.029536374 0.03150461 0.020814875

fc2.weight f4 [10, 100]
000000 62 b8 a0 3e c2 9e 58 3d b2 2d 23 be 7f a2 39 be
       0.31390673 0.05288578 -0.159354 -0.18128394
000010 fe cd 8c bd 47 df fd be bc fe 1a be 11 a4 cf 3e
       -0.068752274 -0.4958441 -0.15136236 0.4055486
000020 db 3e cf 3d 5e bc 85 3e b9 19 07 3e 5c 0e 84 be
       0.101194106 0.26120275 0.13193406 -0.25792205
000030 3a 89 2e 3f 2a de 89 3e db 0b b5 be 8a eb 3a bd
       0.6817814 0.2692731 -0.35360608 -0.045634784
000040 a8 68 2f 3e fd 3f 6e be 97 6f b2 bd b1 e4 b7 bd
       0.17129767 -0.23266597 -0.0871269 -0.08979166
000050 a7 09 fe be 36 a0 13 be 91 c3 7c 3e 6d 70 45 be
       -0.4961674 -0.14416584 0.24683978 -0.19281168
000060 98 76 b1 be 65 59 8c be 46 7e e1 be d7 54 47 3e
       -0.34660792 -0.27411953 -0.4404165 0.19465958
000070 19 49 49 3e 11 12 d7 3e 42 6d 45 bd c2 37 b3 be
       0.19656791 0.4200597 -0.0481999 -0.35003477
000080 e4 1c fc bd f4 c0 e2 be 47 62 1d bf d3 59 cb 3e
       -0.12310198 -0.44287837 -0.61478084 0.39716968
000090 c6 19 23 3e 5f d8 24 bd e8 e0 e9 3d 72 0c e5 be
       0.159278 -0.04024541 0.114198506 -0.44736058
0000a0 e8 70 12 3c 01 39 2d 3e de 51 ad 3e 8c 9c c7 3e
       0.008938052 0.16916277 0.33851522 0.38986623
0000b0 89 21 c5 3d 4a 54 9b 3d a8 70 08 bd af 23 87 be
       0.09625537 0.07584436 -0.033310562 -0.26394412
0000c0 ef 90 37 be 11 64 4c be db 21 72 3e dd da db be
       -0.17926382 -0.19960047 0.23645727 -0.42940417
0000d0 f1 5e 4f 3e 18 78 a4 be 01 0e 6a be 23 0a b6 3d
       0.20251061 -0.32122874 -0.22856905 0.08888652
0000e0 98 83 bf be a2 e5 ad 3e 69 9b 97 3e 71 c4 01 bd
       -0.37405086 0.33964258 0.29610756 -0.03168148
0000f0 6c ee fd 3c 14 a3 78 3d 42 e8 96 bb 1d 58 a3 be
       0.030997477 0.0607024 -0.004605324 -0.31903163
000100 4e c3 06 be 7d b3 2f 3d 28 3e 17 3f 2f 5b 56 be
       -0.1316044 0.042895783 0.5907922 -0.20933221
000110 76 70 8e be e7 6f 9b 3e 14 42 f2 bc ff e8 09 3e
       -0.27820176 0.30358812 -0.029572524 0.13467787
000120 54 93 6d 3d 2a db a8 3e 59 8c f3 3c 2f 41 cb 3e
       0.05800183 0.3297971 0.029730009 0.3969817
000130 5f 0d 40 be db 45 16 3f 20 fc 49 be ff ef 11 bf
       -0.187551 0.5870034 -0.19725084 -0.5700683
000140 e0 00 da be b6 67 cf be 29 1d 46 3e a8 9f b7 be
       -0.42578793 -0.40508813 0.19347061 -0.35863996
000150 c3 08 9a 3e 35 00 f9 3d f5 ee ab 3e 9c d4 8c 3e
       0.3008481 0.121582426 0.33580747 0.27505958
000160 88 43 1e 3d e3 bd 65 be 17 3f b3 3d ef 24 f7 bd
       0.03863862 -0.22435717 0.08752268 -0.120675914
000170 c6 4a ab 3d f9 77 6a be b7 74 d5 3e 40 e9 95 be
       0.08363871 -0.22897328 0.4169061 -0.29279518
000180 00 4c fe be 99 97 a7 3e 22 e3 17 be e6 7a d5 3d
       -0.49667358 0.32732847 -0.14832738 0.10423832
000190 1c 44 ed bd b9 ac 6e 3e 08 89 de 3d bf 1b b5 bd
       -0.115852565 0.23308076 0.108659804 -0.08843183
0001a0 86 b7 d1 3e 2f b8 88 be fe f5 2b 3e 6e c2 84 be
       0.4096033 -0.2670302 0.16793057 -0.25929588
0001b0 10 bb 11 3f df d1 0e 3d 3c 0a ad be f6 e9 66 3e
       0.5692606 0.034868117 -0.3379687 0.22550187
0001c0 3a b9 8b bd ce 0b f2 3e a3 2c 90 3e 61 1e 97 be
       -0.068224385 0.4727463 0.28159055 -0.29515365
0001d0 4a 13 21 be 0b ea dd 3e 18 3d 7f 3e 9c d4 02 3e
       -0.15730014 0.43342623 0.24925649 0.12776417
0001e0 9e d5 35 bd 0e f5 0d 3d 6a ab 32 bd 93 7b 59 3c
       -0.044393174 0.03465753 -0.043620504 0.013274091
0001f0 01 49 a7 3d 19 9b 03 be fd 51 77 3f f4 49 43 3f
       0.08168221 -0.12852134 0.9660948 0.7628472
000200 93 d4 a8 be e5 da 4a 3e 00 83 0b 3e 3a 71 e0 bd
       -0.3297468 0.19810064 0.13624191 -0.10959096
000210 ba bb a8 3e a7 3d 5e 3e 08 63 c3 3d e1 e0 3b be
       0.32955724 0.21703206 0.09540373 -0.18347503
000220 a2 ea 4e be 3d d6 4b 3e 47 d1 e2 be 3b 3c 97 3e
       -0.20206693 0.19905944 -0.4430029 0.2953814
000230 08 ce ab 3e a8 c4 01 bf 8a 5b 78 3e d5 bf ce 3c
       0.33555627 -0.506907 0.2425367 0.025237957
000240 8a 59 86 3e 2c 60 5c 3d 98 27 9b be 0e 37 18 bf
       0.26240188 0.053802654 -0.30303645 -0.59459007
000250 7f 62 07 3f e1 be 96 bd d8 fd 47 ba 04 aa e3 3e
       0.5288467 -0.07360626 -0.0007629073 0.4446565
000260 5f e6 99 be c7 78 17 3e a0 f1 3f 3e 31 f6 b8 3e
       -0.30058572 0.14792167 0.18744516 0.3612533
000270 e9 8e e0 be 6c a8 b3 be 21 26 67 bf 34 0c 55 3e
       -0.43859032 -0.35089433 -0.90292555 0.20805436
000280 83 93 01 3d e6 a0 3f 3e bd 53 8a be 0f a7 c8 be
       0.03163482 0.18713722 -0.27017012 -0.39189956
000290 c4 c3 b8 3e c2 91 ae be d3 4e 9f bd 00 aa d5 be
       0.36086857 -0.3409558 -0.077787064 -0.41731262
0002a0 b0 68 ea bd 0d c6 b0 bb 59 d4 a2 3e 1b 8b 05 bd
       -0.11445749 -0.0053947032 0.31802633 -0.032603364
0002b0 3f c9 e5 3e 4b 89 24 be 6d 6a 9b be ca 9b a8 bd
       0.448801 -0.16067998 -0.30354634 -0.082328394
0002c0 a8 7f 77 3c 1c 9b 9d be 32 00 b9 be bf 4d 11 be
       0.015106119 -0.30782402 -0.36132962 -0.14189814
0002d0 8f 98 9d 3e 85 d7 33 be b8 39 88 be aa 3d b1 be
       0.30780455 -0.17562683 -0.26606536 -0.34617358
0002e0 62 28 a1 3d b5 0e 9e 3d 62 19 d3 3e 51 ce 11 be
       0.078690305 0.07717649 0.41230303 -0.1423886
0002f0 50 58 c8 bd fe e2 79 3c 8c d6 a3 3e b2 4a a1 3e
       -0.09782469 0.015251873 0.31999624 0.315023
000300 aa d7 97 bd 3a 17 3b be 7e 06 0f be 5d 80 e9 3e
       -0.074141815 -0.18270579 -0.1396732 0.45605746
000310 74 62 94 bc 54 1e 94 be b0 64 07 bf c5 b6 13 bf
       -0.018113352 -0.2892939 -0.5288801 -0.5770076
000320 69 a8 0f 3f f3 a6 34 bf 55 89 73 bd 62 81 ee 3c
       0.5611635 -0.70567244 -0.059457142 0.029114429
000330 aa fd cf 3e a1 7b d5 bd 32 4c 04 bf 74 60 dd 3e
       0.40623218 -0.10423971 -0.51678765 0.4323765
000340 1b ce 08 3e 21 07 53 bd f2 79 1f 3e f5 0b 5a 3d
       0.13359873 -0.05152047 0.15573862 0.05323406
000350 36 07 d1 3d b0 c6 1b be 9a 8a a5 be 69 96 0b 3f
       0.102064535 -0.15212512 -0.32332307 0.5452638
000360 d5 eb 18 3e e9 41 05 bf 9d 64 93 bc 80 6b 3f bc
       0.14933713 -0.52053696 -0.017992312 -0.011683345
000370 bb 9a 56 be b1 5d 23 3e cf 50 21 be 6f 94 8a 3e
       -0.20957462 0.15953709 -0.15753482 0.2706637
000380 be f2 9c be b9 6e b6 be a7 c3 f0 bd ee b6 89 bd
       -0.30653948 -0.3563135 -0.11756068 -0.06724344
000390 95 27 4c be 29 f7 5d 3e 6e 1f 4b 3e ce 14 ee 3d
       -0.19936974 0.21676315 0.19836208 0.11625062
0003a0 14 59 d3 3e 48 0c 11 3f 34 88 2f 3e 0e f4 14 3d
       0.412789 0.56659365 0.17141801 0.03636556
0003b0 24 05 91 be f7 36 b9 3e 4d 2f e1 3e 21 8d 9c be
       -0.28324234 0.36174747 0.439814 -0.30576423
0003c0 99 af ae be a5 4c 65 3e 58 7f c9 3e 46 0f 65 3f
       -0.34118345 0.22392519 0.39354968 0.8947643
0003d0 26 20 d4 be 8d 3d c1 3e 00 c6 c0 3e 3a 46 e0 be
       -0.41430777 0.37742272 0.37651062 -0.4380358
0003e0 bf 7c 2c 3e 9e ac 54 3e 2d 90 69 3c 4f c4 04 3f
       0.16844462 0.20768973 0.014255566 0.51862043
0003f0 27 b7 db 3e d3 c0 8b be 88 f3 90 3e 50 fd 01 3f
       0.42913172 -0.2729555 0.283108 0.5077715

fc2.bias f4 [10]
000000 d3 e0 c7 bd 9c 50 a4 3d 84 3a ec 3c fc 2b 8d bc
       -0.09759679 0.080231875 0.028836496 -0.017232887
000010 98 60 1f bd 5f b0 22 bd 67 0a 7a 3c bb 95 ec bd
       -0.03891048 -0.03971898 0.015261269 -0.11551996
000020 5d 47 18 3e 42 8c 36 bd
       0.14870973 -0.044567354
